Using CUDA: True

Observation shape is (1, 36, 36)
(1, 36, 36)
Time 0.5176448822021484
Flattened layer size is 1024
Flattened layer size is 1024
----------------------------------------------------------------
        Layer (type)               Output Shape         Param #
================================================================
            Conv2d-1           [-1, 32, 36, 36]             320
              ReLU-2           [-1, 32, 36, 36]               0
         MaxPool2d-3           [-1, 32, 18, 18]               0
            Conv2d-4           [-1, 64, 18, 18]          18,496
              ReLU-5           [-1, 64, 18, 18]               0
         MaxPool2d-6             [-1, 64, 9, 9]               0
            Conv2d-7             [-1, 64, 9, 9]          36,928
              ReLU-8             [-1, 64, 9, 9]               0
         MaxPool2d-9             [-1, 64, 4, 4]               0
          Flatten-10                 [-1, 1024]               0
           Linear-11                  [-1, 512]         524,800
             ReLU-12                  [-1, 512]               0
           Linear-13                  [-1, 374]         191,862
           Linear-14                  [-1, 512]         524,800
             ReLU-15                  [-1, 512]               0
           Linear-16                    [-1, 1]             513
================================================================
Total params: 1,297,719
Trainable params: 1,297,719
Non-trainable params: 0
----------------------------------------------------------------
Input size (MB): 0.00
Forward/backward pass size (MB): 1.18
Params size (MB): 4.95
Estimated Total Size (MB): 6.14
----------------------------------------------------------------
None
[37, 229, 2, 353, 49, 116, 287, 344, 39, 276, 338, 188, 337, 209, 369, 352, 185, 286, 313, 280]
…
